…
================================================================================

模型路径: /mnt/c/Users/DeePunk.DEEPUNK/Documents/proj/arduino/ToF-AI/model/CNN2D_ST_HandPosture_8classes.h5
模型文件大小: 31.09 KB

模型结构:
--------------------------------------------------------------------------------
Model: "CNN2D_ST_HandPosture"
_________________________________________________________________
 Layer (type)                Output Shape              Param #   
=================================================================
 input_1 (InputLayer)        [(None, 8, 8, 2)]         0         
                                                                 
 conv2d (Conv2D)             (None, 6, 6, 8)           152       
                                                                 
 activation (Activation)     (None, 6, 6, 8)           0         
                                                                 
 max_pooling2d (MaxPooling2D  (None, 3, 3, 8)          0         
 )                                                               
                                                                 
 dropout (Dropout)           (None, 3, 3, 8)           0         
                                                                 
 flatten (Flatten)           (None, 72)                0         
                                                                 
 dense (Dense)               (None, 32)                2336      
                                                                 
 dense_1 (Dense)             (None, 8)                 264       
                                                                 
=================================================================
Total params: 2,752
Trainable params: 2,752
Non-trainable params: 0
_________________________________________________________________


详细层信息:
--------------------------------------------------------------------------------

层 1: input_1
  类型: InputLayer
  输出形状: [(None, 8, 8, 2)]
…
